…
M/35.2M [00:01<00:04, 6.64MB/s] 25%|       | 8.89M/35.2M [00:01<00:02, 10.7MB/s] 36%|      | 12.7M/35.2M [00:01<00:01, 13.6MB/s] 46%|     | 16.3M/35.2M [00:02<00:01, 15.1MB/s] 56%|    | 19.7M/35.2M [00:02<00:01, 15.9MB/s] 67%|   | 23.4M/35.2M [00:02<00:00, 17.0MB/s] 77%|  | 27.2M/35.2M [00:02<00:00, 17.8MB/s] 86%| | 30.2M/35.2M [00:03<00:00, 17.2MB/s] 96%|| 33.9M/35.2M [00:03<00:00, 17.6MB/s]100%|| 35.2M/35.2M [00:03<00:00, 11.5MB/s]
70.6s 12038 Trainable Params: 7491784
70.8s 12039 EfficientNet(
70.8s 12040 (features): Sequential(
70.8s 12041 (0): Conv2dNormActivation(
70.8s 12042 (0): Conv2d(3, 32, kernel_size=(3, 3), stride=(2, 2), padding=(1, 1), bias=False)
70.8s 12043 (1): BatchNorm2d(32, eps=1e-05, momentum=0.1, affine=True, track_running_stats=True)
70.8s 12044 (2): SiLU(inplace=True)
70.8s 12045 )
70.8s 12046 (1): Sequential(
70.8s 12047 (0): MBConv(
70.8s 12048 (block): Sequential(
70.8s 12049 (0): Conv2dNormActivation(
70.8s 12050 (0): Conv2d(32, 32, kernel_size=(3, 3), stride=(1, 1), padding=(1, 1), groups=32, bias=False)
70.8s 12051 (1): BatchNorm2d(32, eps=1e-05, momentum=0.1, affine=True, track_running_stats=True)
70.8s 12052 (2): SiLU(inplace=True)
70.8s 12053 )
70.8s 12054 (1): SqueezeExcitation(
70.8s 12055 (avgpool): AdaptiveAvgPool2d(output_size=1)
70.8s 12056 (fc1): Conv2d(32, 8, kernel_size=(1, 1), stride=(1, 1))
70.8s 12057 (fc2): Conv2d(8, 32, kernel_size=(1, 1), stride=(1, 1))
70.8s 12058 (activation): SiLU(inplace=True)
70.8s 12059 (scale_activation): Sigmoid()
70.8s 12060 )
70.8s 12061 (2): Conv2dNormActivation(
70.8s 12062 (0): Conv2d(32, 16, kernel_size=(1, 1), stride=(1, 1), bias=False)
70.8s 12063 (1): BatchNorm2d(16, eps=1e-05, momentum=0.1, affine=True, track_running_stats=True)
70.8s 12064 )
70.8s 12065 )
70.8s 12066 (stochastic_depth): StochasticDepth(p=0.0, mode=row)
70.8s 12067 )
70.8s 12068 (1): MBConv(
70.8s 12069 (block): Sequential(
70.8s 12070 (0): Conv2dNormActivation(
70.8s 12071 (0): Conv2d(16, 16, kernel_size=(3, 3), stride=(1, 1), padding=(1, 1), groups=16, bias=False)
70.8s 12072 (1): BatchNorm2d(16, eps=1e-05, momentum=0.1, affine=True, track_running_stats=True)
70.8s 12073 (2): SiLU(inplace=True)
70.8s 12074 )
70.8s 12075 (1): SqueezeExcitation(
70.8s 12076 (avgpool): AdaptiveAvgPool2d(output_size=1)
70.8s 12077 (fc1): Conv2d(16, 4, kernel_size=(1, 1), stride=(1, 1))
70.8s 12078 (fc2): Conv2d(4, 16, kernel_size=(1, 1), stride=(1, 1))
70.8s 12079 (activation): SiLU(inplace=True)
70.8s 12080 (scale_activation): Sigmoid()
70.8s 12081 )
70.8s 12082 (2): Conv2dNormActivation(
70.8s 12083 (0): Conv2d(16, 16, kernel_size=(1, 1), stride=(1, 1), bias=False)
70.8s 12084 (1): BatchNorm2d(16, eps=1e-05, momentum=0.1, affine=True, track_running_stats=True)
70.8s 12085 )
70.8s 12086 )
70.8s 12087 (stochastic_depth): StochasticDepth(p=0.008695652173913044, mode=row)
70.8s 12088 )
70.8s 12089 )
70.8s 12090 (2): Sequential(
70.8s 12091 (0): MBConv(
70.8s 12092 (block): Sequential(
70.8s 12093 (0): Conv2dNormActivation(
70.8s 12094 (0): Conv2d(16, 96, kernel_size=(1, 1), stride=(1, 1), bias=False)
70.8s 12095 (1): BatchNorm2d(96, eps=1e-05, momentum=0.1, affine=True, track_running_stats=True)
70.8s 12096 (2): SiLU(inplace=True)
70.8s 12097 )
70.8s 12098 (1): Conv2dNormActivation(
70.8s 12099 (0): Conv2d(96, 96, kernel_size=(3, 3), stride=(2, 2), padding=(1, 1), groups=96, bias=False)
70.8s 12100 (1): BatchNorm2d(96, eps=1e-05, momentum=0.1, affine=True, track_running_stats=True)
70.8s 12101 (2): SiLU(inplace=True)
70.8s 12102 )
70.8s 12103 (2): SqueezeExcitation(
70.8s 12104 (avgpool): AdaptiveAvgPool2d(output_size=1)
70.8s 12105 (fc1): Conv2d(96, 4, kernel_size=(1, 1), stride=(1, 1))
70.8s 12106 (fc2): Conv2d(4, 96, kernel_size=(1, 1), stride=(1, 1))
70.8s 12107 (activation): SiLU(inplace=True)
70.8s 12108 (scale_activation): Sigmoid()
70.8s 12109 )
70.8s 12110 (3): Conv2dNormActivation(
70.8s 12111 (0): Conv2d(96, 24, kernel_size=(1, 1), stride=(1, 1), bias=False)
70.8s 12112 (1): BatchNorm2d(24, eps=1e-05, momentum=0.1, affine=True, track_running_stats=True)
70.8s 12113 )
70.8s 12114 )
70.8s 12115 (stochastic_depth): StochasticDepth(p=0.017391304347826087, mode=row)
70.8s 12116 )
70.8s 12117 (1): MBConv(
70.8s 12118 (block): Sequential(
70.8s 12119 (0): Conv2dNormActivation(
70.8s 12120 (0): Conv2d(24, 144, kernel_size=(1, 1), stride=(1, 1), bias=False)
70.8s 12121 (1): BatchNorm2d(144, eps=1e-05, momentum=0.1, affine=True, track_running_stats=True)
70.8s 12122 (2): SiLU(inplace=True)
70.8s 12123 )
70.8s 12124 (1): Conv2dNormActivation(
70.8s 12125 (0): Conv2d(144, 144, kernel_size=(3, 3), stride=(1, 1), padding=(1, 1), groups=144, bias=False)
70.8s 12126 (1): BatchNorm2d(144, eps=1e-05, momentum=0.1, affine=True, track_running_stats=True)
70.8s 12127 (2): SiLU(inplace=True)
70.8s 12128 )
70.8s 12129 (2): SqueezeExcitation(
70.8s 12130 (avgpool): AdaptiveAvgPool2d(output_size=1)
70.8s 12131 (fc1): Conv2d(144, 6, kernel_size=(1, 1), stride=(1, 1))
70.8s 12132 (fc2): Conv2d(6, 144, kernel_size=(1, 1), stride=(1, 1))
70.8s 12133 (activation): SiLU(inplace=True)
70.8s 12134 (scale_activation): Sigmoid()
70.8s 12135 )
70.8s 12136 (3): Conv2dNormActivation(
70.8s 12137 (0): Conv2d(144, 24, kernel_size=(1, 1), stride=(1, 1), bias=False)
70.8s 12138 (1): BatchNorm2d(24, eps=1e-05, momentum=0.1, affine=True, track_running_stats=True)
70.8s 12139 )
70.8s 12140 )
70.8s 12141 (stochastic_depth): StochasticDepth(p=0.026086956521739136, mode=row)
70.8s 12142 )
70.8s 12143 (2): MBConv(
70.8s 12144 (block): Sequential(
70.8s 12145 (0): Conv2dNormActivation(
70.8s 12146 (0): Conv2d(24, 144, kernel_size=(1, 1), stride=(1, 1), bias=False)
70.8s 12147 (1): BatchNorm2d(144, eps=1e-05, momentum=0.1, affine=True, track_running_stats=True)
70.8s 12148 (2): SiLU(inplace=True)
70.8s 12149 )
70.8s 12150 (1): Conv2dNormActivation(
70.8s 12151 (0): Conv2d(144, 144, kernel_size=(3, 3), stride=(1, 1), padding=(1, 1), groups=144, bias=False)
70.8s 12152 (1): BatchNorm2d(144, eps=1e-05, momentum=0.1, affine=True, track_running_stats=True)
70.8s 12153 (2): SiLU(inplace=True)
70.8s 12154 )
70.8s 12155 (2): SqueezeExcitation(
70.8s 12156 (avgpool): AdaptiveAvgPool2d(output_size=1)
70.8s 12157 (fc1): Conv2d(144, 6, kernel_size=(1, 1), stride=(1, 1))
70.8s 12158 (fc2): Conv2d(6, 144, kernel_size=(1, 1), stride=(1, 1))
70.8s 12159 (activation): SiLU(inplace=True)
70.8s 12160 (scale_activation): Sigmoid()
70.8s 12161 )
70.8s 12162 (3): Conv2dNormActivation(
70.8s 12163 (0): Conv2d(144, 24, kernel_size=(1, 1), stride=(1, 1), bias=False)
70.8s 12164 (1): BatchNorm2d(24, eps=1e-05, momentum=0.1, affine=True, track_running_stats=True)
70.8s 12165 )
70.8s 12166 )
70.8s 12167 (stochastic_depth): StochasticDepth(p=0.034782608695652174, mode=row)
70.8s 12168 )
70.8s 12169 )
70.8s 12170 (3): Sequential(
70.8s 12171 (0): MBConv(
70.8s 12172 (block): Sequential(
70.8s 12173 (0): Conv2dNormActivation(
70.8s 12174 (0): Conv2d(24, 144, kernel_size=(1, 1), stride=(1, 1), bias=False)
70.8s 12175 (1): BatchNorm2d(144, eps=1e-05, momentum=0.1, affine=True, track_running_stats=True)
70.8s 12176 (2): SiLU(inplace=True)
70.8s 12177 )
70.8s 12178 (1): Conv2dNormActivation(
70.8s 12179 (0): Conv2d(144, 144, kernel_size=(5, 5), stride=(2, 2), padding=(2, 2), groups=144, bias=False)
70.8s 12180 (1): BatchNorm2d(144, eps=1e-05, momentum=0.1, affine=True, track_running_stats=True)
70.8s 12181 (2): SiLU(inplace=True)
70.8s 12182 )
70.8s 12183 (2): SqueezeExcitation(
70.8s 12184 (avgpool): AdaptiveAvgPool2d(output_size=1)
70.8s 12185 (fc1): Conv2d(144, 6, kernel_size=(1, 1), stride=(1, 1))
70.8s 12186 (fc2): Conv2d(6, 144, kernel_size=(1, 1), stride=(1, 1))
70.8s 12187 (activation): SiLU(inplace=True)
70.8s 12188 (scale_activation): Sigmoid()
70.8s 12189 )
70.8s 12190 (3): Conv2dNormActivation(
70.8s 12191 (0): Conv2d(144, 48, kernel_size=(1, 1), stride=(1, 1), bias=False)
70.8s 12192 (1): BatchNorm2d(48, eps=1e-05, momentum=0.1, affine=True, track_running_stats=True)
70.8s 12193 )
70.8s 12194 )
70.8s 12195 (stochastic_depth): StochasticDepth(p=0.043478260869565216, mode=row)
70.8s 12196 )
70.8s 12197 (1): MBConv(
70.8s 12198 (block): Sequential(
70.8s 12199 (0): Conv2dNormActivation(
70.8s 12200 (0): Conv2d(48, 288, kernel_size=(1, 1), stride=(1, 1), bias=False)
70.8s 12201 (1): BatchNorm2d(288, eps=1e-05, momentum=0.1, affine=True, track_running_stats=True)
70.8s 12202 (2): SiLU(inplace=True)
70.8s 12203 )
70.8s 12204 (1): Conv2dNormActivation(
70.8s 12205 (0): Conv2d(288, 288, kernel_size=(5, 5), stride=(1, 1), padding=(2, 2), groups=288, bias=False)
70.8s 12206 (1): BatchNorm2d(288, eps=1e-05, momentum=0.1, affine=True, track_running_stats=True)
70.8s 12207 (2): SiLU(inplace=True)
70.8s 12208 )
70.8s 12209 (2): SqueezeExcitation(
70.8s 12210 (avgpool): AdaptiveAvgPool2d(output_size=1)
70.8s 12211 (fc1): Conv2d(288, 12, kernel_size=(1, 1), stride=(1, 1))
70.8s 12212 (fc2): Conv2d(12, 288, kernel_size=(1, 1), stride=(1, 1))
70.8s 12213 (activation): SiLU(inplace=True)
70.8s 12214 (scale_activation): Sigmoid()
70.8s 12215 )
70.8s 12216 (3): Conv2dNormActivation(
70.8s 12217 (0): Conv2d(288, 48, kernel_size=(1, 1), stride=(1, 1), bias=False)
70.8s 12218 (1): BatchNorm2d(48, eps=1e-05, momentum=0.1, affine=True, track_running_stats=True)
70.8s 12219 )
70.8s 12220 )
70.8s 12221 (stochastic_depth): StochasticDepth(p=0.05217391304347827, mode=row)
70.8s 12222 )
70.8s 12223 (2): MBConv(
70.8s 12224 (block): Sequential(
70.8s 12225 (0): Conv2dNormActivation(
70.8s 12226 (0): Conv2d(48, 288, kernel_size=(1, 1), stride=(1, 1), bias=False)
70.8s 12227 (1): BatchNorm2d(288, eps=1e-05, momentum=0.1, affine=True, track_running_stats=True)
70.8s 12228 (2): SiLU(inplace=True)
70.8s 12229 )
70.8s 12230 (1): Conv2dNormActivation(
70.8s 12231 (0): Conv2d(288, 288, kernel_size=(5, 5), stride=(1, 1), padding=(2, 2), groups=288, bias=False)
70.8s 12232 (1): BatchNorm2d(288, eps=1e-05, momentum=0.1, affine=True, track_running_stats=True)
70.8s 12233 (2): SiLU(inplace=True)
70.8s 12234 )
70.8s 12235 (2): SqueezeExcitation(
70.8s 12236 (avgpool): AdaptiveAvgPool2d(output_size=1)
70.8s 12237 (fc1): Conv2d(288, 12, kernel_size=(1, 1), stride=(1, 1))
70.8s 12238 (fc2): Conv2d(12, 288, kernel_size=(1, 1), stride=(1, 1))
70.8s 12239 (activation): SiLU(inplace=True)
70.8s 12240 (scale_activation): Sigmoid()
70.8s 12241 )
70.8s 12242 (3): Conv2dNormActivation(
70.8s 12243 (0): Conv2d(288, 48, kernel_size=(1, 1), stride=(1, 1), bias=False)
70.8s 12244 (1): BatchNorm2d(48, eps=1e-05, momentum=0.1, affine=True, track_running_stats=True)
70.8s 12245 )
70.8s 12246 )
70.8s 12247 (stochastic_depth): StochasticDepth(p=0.06086956521739131, mode=row)
70.8s 12248 )
70.8s 12249 )
70.8s 12250 (4): Sequential(
70.8s 12251 (0): MBConv(
70.8s 12252 (block): Sequential(
70.8s 12253 (0): Conv2dNormActivation(
70.8s 12254 (0): Conv2d(48, 288, kernel_size=(1, 1), stride=(1, 1), bias=False)
70.8s 12255 (1): BatchNorm2d(288, eps=1e-05, momentum=0.1, affine=True, track_running_stats=True)
70.8s 12256 (2): SiLU(inplace=True)
70.8s 12257 )
70.8s 12258 (1): Conv2dNormActivation(
70.8s 12259 (0): Conv2d(288, 288, kernel_size=(3, 3), stride=(2, 2), padding=(1, 1), groups=288, bias=False)
70.8s 12260 (1): BatchNorm2d(288, eps=1e-05, momentum=0.1, affine=True, track_running_stats=True)
70.8s 12261 (2): SiLU(inplace=True)
70.8s 12262 )
70.8s 12263 (2): SqueezeExcitation(
70.8s 12264 (avgpool): AdaptiveAvgPool2d(output_size=1)
70.8s 12265 (fc1): Conv2d(288, 12, kernel_size=(1, 1), stride=(1, 1))
70.8s 12266 (fc2): Conv2d(12, 288, kernel_size=(1, 1), stride=(1, 1))
70.8s 12267 (activation): SiLU(inplace=True)
70.8s 12268 (scale_activation): Sigmoid()
70.8s 12269 )
70.8s 12270 (3): Conv2dNormActivation(
70.8s 12271 (0): Conv2d(288, 88, kernel_size=(1, 1), stride=(1, 1), bias=False)
70.8s 12272 (1): BatchNorm2d(88, eps=1e-05, momentum=0.1, affine=True, track_running_stats=True)
70.8s 12273 )
70.8s 12274 )
70.8s 12275 (stochastic_depth): StochasticDepth(p=0.06956521739130435, mode=row)
70.8s 12276 )
70.8s 12277 (1): MBConv(
70.8s 12278 (block): Sequential(
70.8s 12279 (0): Conv2dNormActivation(
70.8s 12280 (0): Conv2d(88, 528, kernel_size=(1, 1), stride=(1, 1), bias=False)
70.8s 12281 (1): BatchNorm2d(528, eps=1e-05, momentum=0.1, affine=True, track_running_stats=True)
70.8s 12282 (2): SiLU(inplace=True)
70.8s 12283 )
70.8s 12284 (1): Conv2dNormActivation(
70.8s 12285 (0): Conv2d(528, 528, kernel_size=(3, 3), stride=(1, 1), padding=(1, 1), groups=528, bias=False)
70.8s 12286 (1): BatchNorm2d(528, eps=1e-05, momentum=0.1, affine=True, track_running_stats=True)
70.8s 12287 (2): SiLU(inplace=True)
70.8s 12288 )
70.8s 12289 (2): SqueezeExcitation(
70.8s 12290 (avgpool): AdaptiveAvgPool2d(output_size=1)
70.8s 12291 (fc1): Conv2d(528, 22, kernel_size=(1, 1), stride=(1, 1))
70.8s 12292 (fc2): Conv2d(22, 528, kernel_size=(1, 1), stride=(1, 1))
70.8s 12293 (activation): SiLU(inplace=True)
70.8s 12294 (scale_activation): Sigmoid()
70.8s 12295 )
70.8s 12296 (3): Conv2dNormActivation(
70.8s 12297 (0): Conv2d(528, 88, kernel_size=(1, 1), stride=(1, 1), bias=False)
70.8s 12298 (1): BatchNorm2d(88, eps=1e-05, momentum=0.1, affine=True, track_running_stats=True)
70.8s 12299 )
70.8s 12300 )
70.8s 12301 (stochastic_depth): StochasticDepth(p=0.0782608695652174, mode=row)
70.8s 12302 )
70.8s 12303 (2): MBConv(
70.8s 12304 (block): Sequential(
70.8s 12305 (0): Conv2dNormActivation(
70.8s 12306 (0): Conv2d(88, 528, kernel_size=(1, 1), stride=(1, 1), bias=False)
70.8s 12307 (1): BatchNorm2d(528, eps=1e-05, momentum=0.1, affine=True, track_running_stats=True)
70.8s 12308 (2): SiLU(inplace=True)
70.8s 12309 )
70.8s 12310 (1): Conv2dNormActivation(
70.8s 12311 (0): Conv2d(528, 528, kernel_size=(3, 3), stride=(1, 1), padding=(1, 1), groups=528, bias=False)
70.8s 12312 (1): BatchNorm2d(528, eps=1e-05, momentum=0.1, affine=True, track_running_stats=True)
70.8s 12313 (2): SiLU(inplace=True)
70.8s 12314 )
70.8s 12315 (2): SqueezeExcitation(
70.8s 12316 (avgpool): AdaptiveAvgPool2d(output_size=1)
70.8s 12317 (fc1): Conv2d(528, 22, kernel_size=(1, 1), stride=(1, 1))
70.8s 12318 (fc2): Conv2d(22, 528, kernel_size=(1, 1), stride=(1, 1))
70.8s 12319 (activation): SiLU(inplace=True)
70.8s 12320 (scale_activation): Sigmoid()
70.8s 12321 )
70.8s 12322 (3): Conv2dNormActivation(
70.8s 12323 (0): Conv2d(528, 88, kernel_size=(1, 1), stride=(1, 1), bias=False)
70.8s 12324 (1): BatchNorm2d(88, eps=1e-05, momentum=0.1, affine=True, track_running_stats=True)
70.8s 12325 )
70.8s 12326 )
70.8s 12327 (stochastic_depth): StochasticDepth(p=0.08695652173913043, mode=row)
70.8s 12328 )
70.8s 12329 (3): MBConv(
70.8s 12330 (block): Sequential(
70.8s 12331 (0): Conv2dNormActivation(
70.8s 12332 (0): Conv2d(88, 528, kernel_size=(1, 1), stride=(1, 1), bias=False)
70.8s 12333 (1): BatchNorm2d(528, eps=1e-05, momentum=0.1, affine=True, track_running_stats=True)
70.8s 12334 (2): SiLU(inplace=True)
70.8s 12335 )
70.8s 12336 (1): Conv2dNormActivation(
70.8s 12337 (0): Conv2d(528, 528, kernel_size=(3, 3), stride=(1, 1), padding=(1, 1), groups=528, bias=False)
70.8s 12338 (1): BatchNorm2d(528, eps=1e-05, momentum=0.1, affine=True, track_running_stats=True)
70.8s 12339 (2): SiLU(inplace=True)
70.8s 12340 )
70.8s 12341 (2): SqueezeExcitation(
70.8s 12342 (avgpool): AdaptiveAvgPool2d(output_size=1)
70.8s 12343 (fc1): Conv2d(528, 22, kernel_size=(1, 1), stride=(1, 1))
70.8s 12344 (fc2): Conv2d(22, 528, kernel_size=(1, 1), stride=(1, 1))
70.8s 12345 (activation): SiLU(inplace=True)
70.8s 12346 (scale_activation): Sigmoid()
70.8s 12347 )
70.8s 12348 (3): Conv2dNormActivation(
70.8s 12349 (0): Conv2d(528, 88, kernel_size=(1, 1), stride=(1, 1), bias=False)
70.8s 12350 (1): BatchNorm2d(88, eps=1e-05, momentum=0.1, affine=True, track_running_stats=True)
70.8s 12351 )
70.8s 12352 )
70.8s 12353 (stochastic_depth): StochasticDepth(p=0.09565217391304348, mode=row)
70.8s 12354 )
70.8s 12355 )
70.8s 12356 (5): Sequential(
70.8s 12357 (0): MBConv(
70.8s 12358 (block): Sequential(
70.8s 12359 (0): Conv2dNormActivation(
70.8s 12360 (0): Conv2d(88, 528, kernel_size=(1, 1), stride=(1, 1), bias=False)
70.8s 12361 (1): BatchNorm2d(528, eps=1e-05, momentum=0.1, affine=True, track_running_stats=True)
70.8s 12362 (2): SiLU(inplace=True)
70.8s 12363 )
70.8s 12364 (1): Conv2dNormActivation(
70.8s 12365 (0): Conv2d(528, 528, kernel_size=(5, 5), stride=(1, 1), padding=(2, 2), groups=528, bias=False)
70.8s 12366 (1): BatchNorm2d(528, eps=1e-05, momentum=0.1, affine=True, track_running_stats=True)
70.8s 12367 (2): SiLU(inplace=True)
70.8s 12368 )
70.8s 12369 (2): SqueezeExcitation(
70.8s 12370 (avgpool): AdaptiveAvgPool2d(output_size=1)
70.8s 12371 (fc1): Conv2d(528, 22, kernel_size=(1, 1), stride=(1, 1))
70.8s 12372 (fc2): Conv2d(22, 528, kernel_size=(1, 1), stride=(1, 1))
70.8s 12373 (activation): SiLU(inplace=True)
70.8s 12374 (scale_activation): Sigmoid()
70.8s 12375 )
70.8s 12376 (3): Conv2dNormActivation(
70.8s 12377 (0): Conv2d(528, 120, kernel_size=(1, 1), stride=(1, 1), bias=False)
70.8s 12378 (1): BatchNorm2d(120, eps=1e-05, momentum=0.1, affine=True, track_running_stats=True)
70.8s 12379 )
70.8s 12380 )
70.8s 12381 (stochastic_depth): StochasticDepth(p=0.10434782608695654, mode=row)
70.8s 12382 )
70.8s 12383 (1): MBConv(
70.8s 12384 (block): Sequential(
70.8s 12385 (0): Conv2dNormActivation(
70.8s 12386 (0): Conv2d(120, 720, kernel_size=(1, 1), stride=(1, 1), bias=False)
70.8s 12387 (1): BatchNorm2d(720, eps=1e-05, momentum=0.1, affine=True, track_running_stats=True)
70.8s 12388 (2): SiLU(inplace=True)
70.8s 12389 )
70.8s 12390 (1): Conv2dNormActivation(
70.8s 12391 (0): Conv2d(720, 720, kernel_size=(5, 5), stride=(1, 1), padding=(2, 2), groups=720, bias=False)
70.8s 12392 (1): BatchNorm2d(720, eps=1e-05, momentum=0.1, affine=True, track_running_stats=True)
70.8s 12393 (2): SiLU(inplace=True)
70.8s 12394 )
70.8s 12395 (2): SqueezeExcitation(
70.8s 12396 (avgpool): AdaptiveAvgPool2d(output_size=1)
70.8s 12397 (fc1): Conv2d(720, 30, kernel_size=(1, 1), stride=(1, 1))
70.8s 12398 (fc2): Conv2d(30, 720, kernel_size=(1, 1), stride=(1, 1))
70.8s 12399 (activation): SiLU(inplace=True)
70.8s 12400 (scale_activation): Sigmoid()
70.8s 12401 )
70.8s 12402 (3): Conv2dNormActivation(
70.8s 12403 (0): Conv2d(720, 120, kernel_size=(1, 1), stride=(1, 1), bias=False)
70.8s 12404 (1): BatchNorm2d(120, eps=1e-05, momentum=0.1, affine=True, track_running_stats=True)
70.8s 12405 )
70.8s 12406 )
70.8s 12407 (stochastic_depth): StochasticDepth(p=0.11304347826086956, mode=row)
70.8s 12408 )
70.8s 12409 (2): MBConv(
70.8s 12410 (block): Sequential(
70.8s 12411 (0): Conv2dNormActivation(
70.8s 12412 (0): Conv2d(120, 720, kernel_size=(1, 1), stride=(1, 1), bias=False)
70.8s 12413 (1): BatchNorm2d(720, eps=1e-05, momentum=0.1, affine=True, track_running_stats=True)
70.8s 12414 (2): SiLU(inplace=True)
70.8s 12415 )
70.8s 12416 (1): Conv2dNormActivation(
70.8s 12417 (0): Conv2d(720, 720, kernel_size=(5, 5), stride=(1, 1), padding=(2, 2), groups=720, bias=False)
70.8s 12418 (1): BatchNorm2d(720, eps=1e-05, momentum=0.1, affine=True, track_running_stats=True)
70.8s 12419 (2): SiLU(inplace=True)
70.8s 12420 )
70.8s 12421 (2): SqueezeExcitation(
70.8s 12422 (avgpool): AdaptiveAvgPool2d(output_size=1)
70.8s 12423 (fc1): Conv2d(720, 30, kernel_size=(1, 1), stride=(1, 1))
70.8s 12424 (fc2): Conv2d(30, 720, kernel_size=(1, 1), stride=(1, 1))
70.8s 12425 (activation): SiLU(inplace=True)
70.8s 12426 (scale_activation): Sigmoid()
70.8s 12427 )
70.8s 12428 (3): Conv2dNormActivation(
70.8s 12429 (0): Conv2d(720, 120, kernel_size=(1, 1), stride=(1, 1), bias=False)
70.8s 12430 (1): BatchNorm2d(120, eps=1e-05, momentum=0.1, affine=True, track_running_stats=True)
70.8s 12431 )
70.8s 12432 )
70.8s 12433 (stochastic_depth): StochasticDepth(p=0.12173913043478261, mode=row)
70.8s 12434 )
70.8s 12435 (3): MBConv(
70.8s 12436 (block): Sequential(
70.8s 12437 (0): Conv2dNormActivation(
70.8s 12438 (0): Conv2d(120, 720, kernel_size=(1, 1), stride=(1, 1), bias=False)
70.8s 12439 (1): BatchNorm2d(720, eps=1e-05, momentum=0.1, affine=True, track_running_stats=True)
70.8s 12440 (2): SiLU(inplace=True)
70.8s 12441 )
70.8s 12442 (1): Conv2dNormActivation(
70.8s 12443 (0): Conv2d(720, 720, kernel_size=(5, 5), stride=(1, 1), padding=(2, 2), groups=720, bias=False)
70.8s 12444 (1): BatchNorm2d(720, eps=1e-05, momentum=0.1, affine=True, track_running_stats=True)
70.8s 12445 (2): SiLU(inplace=True)
70.8s 12446 )
70.8s 12447 (2): SqueezeExcitation(
70.8s 12448 (avgpool): AdaptiveAvgPool2d(output_size=1)
70.8s 12449 (fc1): Conv2d(720, 30, kernel_size=(1, 1), stride=(1, 1))
70.8s 12450 (fc2): Conv2d(30, 720, kernel_size=(1, 1), stride=(1, 1))
70.8s 12451 (activation): SiLU(inplace=True)
70.8s 12452 (scale_activation): Sigmoid()
70.8s 12453 )
70.8s 12454 (3): Conv2dNormActivation(
70.8s 12455 (0): Conv2d(720, 120, kernel_size=(1, 1), stride=(1, 1), bias=False)
70.8s 12456 (1): BatchNorm2d(120, eps=1e-05, momentum=0.1, affine=True, track_running_stats=True)
70.8s 12457 )
70.8s 12458 )
70.8s 12459 (stochastic_depth): StochasticDepth(p=0.13043478260869565, mode=row)
70.8s 12460 )
70.8s 12461 )
70.8s 12462 (6): Sequential(
70.8s 12463 (0): MBConv(
70.8s 12464 (block): Sequential(
70.8s 12465 (0): Conv2dNormActivation(
70.8s 12466 (0): Conv2d(120, 720, kernel_size=(1, 1), stride=(1, 1), bias=False)
70.8s 12467 (1): BatchNorm2d(720, eps=1e-05, momentum=0.1, affine=True, track_running_stats=True)
70.8s 12468 (2): SiLU(inplace=True)
70.8s 12469 )
70.8s 12470 (1): Conv2dNormActivation(
70.8s 12471 (0): Conv2d(720, 720, kernel_size=(5, 5), stride=(2, 2), padding=(2, 2), groups=720, bias=False)
70.8s 12472 (1): BatchNorm2d(720, eps=1e-05, momentum=0.1, affine=True, track_running_stats=True)
70.8s 12473 (2): SiLU(inplace=True)
70.8s 12474 )
70.8s 12475 (2): SqueezeExcitation(
70.8s 12476 (avgpool): AdaptiveAvgPool2d(output_size=1)
70.8s 12477 (fc1): Conv2d(720, 30, kernel_size=(1, 1), stride=(1, 1))
70.8s 12478 (fc2): Conv2d(30, 720, kernel_size=(1, 1), stride=(1, 1))
70.8s 12479 (activation): SiLU(inplace=True)
70.8s 12480 (scale_activation): Sigmoid()
70.8s 12481 )
70.8s 12482 (3): Conv2dNormActivation(
70.8s 12483 (0): Conv2d(720, 208, kernel_size=(1, 1), stride=(1, 1), bias=False)
70.8s 12484 (1): BatchNorm2d(208, eps=1e-05, momentum=0.1, affine=True, track_running_stats=True)
70.8s 12485 )
70.8s 12486 )
70.8s 12487 (stochastic_depth): StochasticDepth(p=0.1391304347826087, mode=row)
70.8s 12488 )
70.8s 12489 (1): MBConv(
70.8s 12490 (block): Sequential(
70.8s 12491 (0): Conv2dNormActivation(
70.8s 12492 (0): Conv2d(208, 1248, kernel_size=(1, 1), stride=(1, 1), bias=False)
70.8s 12493 (1): BatchNorm2d(1248, eps=1e-05, momentum=0.1, affine=True, track_running_stats=True)
70.8s 12494 (2): SiLU(inplace=True)
70.8s 12495 )
70.8s 12496 (1): Conv2dNormActivation(
70.8s 12497 (0): Conv2d(1248, 1248, kernel_size=(5, 5), stride=(1, 1), padding=(2, 2), groups=1248, bias=False)
70.8s 12498 (1): BatchNorm2d(1248, eps=1e-05, momentum=0.1, affine=True, track_running_stats=True)
70.8s 12499 (2): SiLU(inplace=True)
70.8s 12500 )
70.8s 12501 (2): SqueezeExcitation(
70.8s 12502 (avgpool): AdaptiveAvgPool2d(output_size=1)
70.8s 12503 (fc1): Conv2d(1248, 52, kernel_size=(1, 1), stride=(1, 1))
70.8s 12504 (fc2): Conv2d(52, 1248, kernel_size=(1, 1), stride=(1, 1))
70.8s 12505 (activation): SiLU(inplace=True)
70.8s 12506 (scale_activation): Sigmoid()
70.8s 12507 )
70.8s 12508 (3): Conv2dNormActivation(
70.8s 12509 (0): Conv2d(1248, 208, kernel_size=(1, 1), stride=(1, 1), bias=False)
70.8s 12510 (1): BatchNorm2d(208, eps=1e-05, momentum=0.1, affine=True, track_running_stats=True)
70.8s 12511 )
70.8s 12512 )
70.8s 12513 (stochastic_depth): StochasticDepth(p=0.14782608695652175, mode=row)
70.8s 12514 )
70.8s 12515 (2): MBConv(
70.8s 12516 (block): Sequential(
70.8s 12517 (0): Conv2dNormActivation(
70.8s 12518 (0): Conv2d(208, 1248, kernel_size=(1, 1), stride=(1, 1), bias=False)
70.8s 12519 (1): BatchNorm2d(1248, eps=1e-05, momentum=0.1, affine=True, track_running_stats=True)
70.8s 12520 (2): SiLU(inplace=True)
70.8s 12521 )
70.8s 12522 (1): Conv2dNormActivation(
70.8s 12523 (0): Conv2d(1248, 1248, kernel_size=(5, 5), stride=(1, 1), padding=(2, 2), groups=1248, bias=False)
70.8s 12524 (1): BatchNorm2d(1248, eps=1e-05, momentum=0.1, affine=True, track_running_stats=True)
70.8s 12525 (2): SiLU(inplace=True)
70.8s 12526 )
70.8s 12527 (2): SqueezeExcitation(
70.8s 12528 (avgpool): AdaptiveAvgPool2d(output_size=1)
70.8s 12529 (fc1): Conv2d(1248, 52, kernel_size=(1, 1), stride=(1, 1))
70.8s 12530 (fc2): Conv2d(52, 1248, kernel_size=(1, 1), stride=(1, 1))
70.8s 12531 (activation): SiLU(inplace=True)
70.8s 12532 (scale_activation): Sigmoid()
70.8s 12533 )
70.8s 12534 (3): Conv2dNormActivation(
70.8s 12535 (0): Conv2d(1248, 208, kernel_size=(1, 1), stride=(1, 1), bias=False)
70.8s 12536 (1): BatchNorm2d(208, eps=1e-05, momentum=0.1, affine=True, track_running_stats=True)
70.8s 12537 )
70.8s 12538 )
70.8s 12539 (stochastic_depth): StochasticDepth(p=0.1565217391304348, mode=row)
70.8s 12540 )
70.8s 12541 (3): MBConv(
70.8s 12542 (block): Sequential(
70.8s 12543 (0): Conv2dNormActivation(
70.8s 12544 (0): Conv2d(208, 1248, kernel_size=(1, 1), stride=(1, 1), bias=False)
70.8s 12545 (1): BatchNorm2d(1248, eps=1e-05, momentum=0.1, affine=True, track_running_stats=True)
70.8s 12546 (2): SiLU(inplace=True)
70.8s 12547 )
70.8s 12548 (1): Conv2dNormActivation(
70.8s 12549 (0): Conv2d(1248, 1248, kernel_size=(5, 5), stride=(1, 1), padding=(2, 2), groups=1248, bias=False)
70.8s 12550 (1): BatchNorm2d(1248, eps=1e-05, momentum=0.1, affine=True, track_running_stats=True)
70.8s 12551 (2): SiLU(inplace=True)
70.8s 12552 )
70.8s 12553 (2): SqueezeExcitation(
70.8s 12554 (avgpool): AdaptiveAvgPool2d(output_size=1)
70.8s 12555 (fc1): Conv2d(1248, 52, kernel_size=(1, 1), stride=(1, 1))
70.8s 12556 (fc2): Conv2d(52, 1248, kernel_size=(1, 1), stride=(1, 1))
70.8s 12557 (activation): SiLU(inplace=True)
70.8s 12558 (scale_activation): Sigmoid()
70.8s 12559 )
70.8s 12560 (3): Conv2dNormActivation(
70.8s 12561 (0): Conv2d(1248, 208, kernel_size=(1, 1), stride=(1, 1), bias=False)
70.8s 12562 (1): BatchNorm2d(208, eps=1e-05, momentum=0.1, affine=True, track_running_stats=True)
70.8s 12563 )
70.8s 12564 )
70.8s 12565 (stochastic_depth): StochasticDepth(p=0.16521739130434784, mode=row)
70.8s 12566 )
70.8s 12567 (4): MBConv(
70.8s 12568 (block): Sequential(
70.8s 12569 (0): Conv2dNormActivation(
70.8s 12570 (0): Conv2d(208, 1248, kernel_size=(1, 1), stride=(1, 1), bias=False)
70.8s 12571 (1): BatchNorm2d(1248, eps=1e-05, momentum=0.1, affine=True, track_running_stats=True)
70.8s 12572 (2): SiLU(inplace=True)
70.8s 12573 )
70.8s 12574 (1): Conv2dNormActivation(
70.8s 12575 (0): Conv2d(1248, 1248, kernel_size=(5, 5), stride=(1, 1), padding=(2, 2), groups=1248, bias=False)
70.8s 12576 (1): BatchNorm2d(1248, eps=1e-05, momentum=0.1, affine=True, track_running_stats=True)
70.8s 12577 (2): SiLU(inplace=True)
70.8s 12578 )
70.8s 12579 (2): SqueezeExcitation(
70.8s 12580 (avgpool): AdaptiveAvgPool2d(output_size=1)
70.8s 12581 (fc1): Conv2d(1248, 52, kernel_size=(1, 1), stride=(1, 1))
70.8s 12582 (fc2): Conv2d(52, 1248, kernel_size=(1, 1), stride=(1, 1))
70.8s 12583 (activation): SiLU(inplace=True)
70.8s 12584 (scale_activation): Sigmoid()
70.8s 12585 )
70.8s 12586 (3): Conv2dNormActivation(
70.8s 12587 (0): Conv2d(1248, 208, kernel_size=(1, 1), stride=(1, 1), bias=False)
70.8s 12588 (1): BatchNorm2d(208, eps=1e-05, momentum=0.1, affine=True, track_running_stats=True)
70.8s 12589 )
70.8s 12590 )
70.8s 12591 (stochastic_depth): StochasticDepth(p=0.17391304347826086, mode=row)
70.8s 12592 )
70.8s 12593 )
70.8s 12594 (7): Sequential(
70.8s 12595 (0): MBConv(
70.8s 12596 (block): Sequential(
70.8s 12597 (0): Conv2dNormActivation(
70.8s 12598 (0): Conv2d(208, 1248, kernel_size=(1, 1), stride=(1, 1), bias=False)
70.8s 12599 (1): BatchNorm2d(1248, eps=1e-05, momentum=0.1, affine=True, track_running_stats=True)
70.8s 12600 (2): SiLU(inplace=True)
70.8s 12601 )
70.8s 12602 (1): Conv2dNormActivation(
70.8s 12603 (0): Conv2d(1248, 1248, kernel_size=(3, 3), stride=(1, 1), padding=(1, 1), groups=1248, bias=False)
70.8s 12604 (1): BatchNorm2d(1248, eps=1e-05, momentum=0.1, affine=True, track_running_stats=True)
70.8s 12605 (2): SiLU(inplace=True)
70.8s 12606 )
70.8s 12607 (2): SqueezeExcitation(
70.8s 12608 (avgpool): AdaptiveAvgPool2d(output_size=1)
70.8s 12609 (fc1): Conv2d(1248, 52, kernel_size=(1, 1), stride=(1, 1))
70.8s 12610 (fc2): Conv2d(52, 1248, kernel_size=(1, 1), stride=(1, 1))
70.8s 12611 (activation): SiLU(inplace=True)
70.8s 12612 (scale_activation): Sigmoid()
70.8s 12613 )
70.8s 12614 (3): Conv2dNormActivation(
70.8s 12615 (0): Conv2d(1248, 352, kernel_size=(1, 1), stride=(1, 1), bias=False)
70.8s 12616 (1): BatchNorm2d(352, eps=1e-05, momentum=0.1, affine=True, track_running_stats=True)
70.8s 12617 )
70.8s 12618 )
70.8s 12619 (stochastic_depth): StochasticDepth(p=0.1826086956521739, mode=row)
70.8s 12620 )
70.8s 12621 (1): MBConv(
70.8s 12622 (block): Sequential(
70.8s 12623 (0): Conv2dNormActivation(
70.8s 12624 (0): Conv2d(352, 2112, kernel_size=(1, 1), stride=(1, 1), bias=False)
70.8s 12625 (1): BatchNorm2d(2112, eps=1e-05, momentum=0.1, affine=True, track_running_stats=True)
70.8s 12626 (2): SiLU(inplace=True)
70.8s 12627 )
70.8s 12628 (1): Conv2dNormActivation(
70.8s 12629 (0): Conv2d(2112, 2112, kernel_size=(3, 3), stride=(1, 1), padding=(1, 1), groups=2112, bias=False)
70.8s 12630 (1): BatchNorm2d(2112, eps=1e-05, momentum=0.1, affine=True, track_running_stats=True)
70.8s 12631 (2): SiLU(inplace=True)
70.8s 12632 )
70.8s 12633 (2): SqueezeExcitation(
70.8s 12634 (avgpool): AdaptiveAvgPool2d(output_size=1)
70.8s 12635 (fc1): Conv2d(2112, 88, kernel_size=(1, 1), stride=(1, 1))
70.8s 12636 (fc2): Conv2d(88, 2112, kernel_size=(1, 1), stride=(1, 1))
70.8s 12637 (activation): SiLU(inplace=True)
70.8s 12638 (scale_activation): Sigmoid()
70.8s 12639 )
70.8s 12640 (3): Conv2dNormActivation(
70.8s 12641 (0): Conv2d(2112, 352, kernel_size=(1, 1), stride=(1, 1), bias=False)
70.8s 12642 (1): BatchNorm2d(352, eps=1e-05, momentum=0.1, affine=True, track_running_stats=True)
70.8s 12643 )
70.8s 12644 )
70.8s 12645 (stochastic_depth): StochasticDepth(p=0.19130434782608696, mode=row)
70.8s 12646 )
70.8s 12647 )
70.8s 12648 (8): Conv2dNormActivation(
70.8s 12649 (0): Conv2d(352, 1408, kernel_size=(1, 1), stride=(1, 1), bias=False)
70.8s 12650 (1): BatchNorm2d(1408, eps=1e-05, momentum=0.1, affine=True, track_running_stats=True)
70.8s 12651 (2): SiLU(inplace=True)
70.8s 12652 )
70.8s 12653 )
70.8s 12654 (avgpool): AdaptiveAvgPool2d(output_size=1)
70.8s 12655 (classifier): Sequential(
70.8s 12656 (0): Linear(in_features=1408, out_features=2048, bias=True)
70.8s 12657 (1): SiLU()
70.8s 12658 (2): Dropout(p=0.3, inplace=False)
70.8s 12659 (3): Linear(in_features=2048, out_features=2048, bias=True)
70.8s 12660 (4): SiLU()
70.8s 12661 (5): Dropout(p=0.3, inplace=False)
70.8s 12662 (6): Linear(in_features=2048, out_features=200, bias=True)
70.8s 12663 )
70.8s 12664 )
72.0s 12665 Epoch 0/19
72.0s 12666 ----------
100.4s 12667 0%|          | 0/35 [00:00<?, ?it/s]  3%|         | 1/35 [00:07<04:16,  7.54s/it]  6%|         | 2/35 [00:07<01:49,  3.33s/it]  9%|         | 3/35 [00:08<01:03,  1.99s/it] 11%|        | 4/35 [00:08<00:42,  1.36s/it] 14%|        | 5/35 [00:09<00:30,  1.01s/it] 
…
